…
        "dropout_prob": 0.1,
        "attention_dropout": 0.1,
        "pooling_mode": "MEAN",
        "num_classes": 2,
        "bz_rate": 1,
        "mixed_precision": true,
        "attn_type": "softmax",
        "random_seed": 42
    },
    {
        "batch_size": 32,
        "learning_rate": 0.0001,
        "warmup": 80,
        "lr_decay": "linear",
        "weight_decay": 0,
        "eval_frequency": 500,
        "num_train_steps": 50000,
        "num_init_steps": 3000,
        "num_eval_steps": 200,
        "patience": 10
    }
]
ModelForSC(
  (model): Model(
    (embeddings): Embeddings(
      (word_embeddings): Embedding(512, 64)
      (position_embeddings): Embedding(4096, 64)
      (dropout): Dropout(p=0.1, inplace=False)
    )
    (transformer_0): TransformerLayer(
      (norm1): LayerNorm((64,), eps=1e-05, elementwise_affine=True)
      (mha): Attention(
        (W_q): Linear(in_features=64, out_features=64, bias=True)
        (W_k): Linear(in_features=64, out_features=64, bias=True)
        (W_v): Linear(in_features=64, out_features=64, bias=True)
        (attn): SoftmaxAttention(
          (drop_attn): Dropout(p=0.1, inplace=False)
        )
        (ff): Linear(in_features=64, out_features=64, bias=True)
      )
      (dropout1): Dropout(p=0.1, inplace=False)
      (norm2): LayerNorm((64,), eps=1e-05, elementwise_affine=True)
      (mlpblock): Sequential(
        (0): Linear(in_features=64, out_features=128, bias=True)
        (1): GELU()
        (2): Dropout(p=0.1, inplace=False)
        (3): Linear(in_features=128, out_features=64, bias=True)
        (4): Dropout(p=0.1, inplace=False)
      )
    )
    (transformer_1): TransformerLayer(
      (norm1): LayerNorm((64,), eps=1e-05, elementwise_affine=True)
      (mha): Attention(
        (W_q): Linear(in_features=64, out_features=64, bias=True)
        (W_k): Linear(in_features=64, out_features=64, bias=True)
        (W_v): Linear(in_features=64, out_features=64, bias=True)
        (attn): SoftmaxAttention(
          (drop_attn): Dropout(p=0.1, inplace=False)
        )
        (ff): Linear(in_features=64, out_features=64, bias=True)
      )
      (dropout1): Dropout(p=0.1, inplace=False)
      (norm2): LayerNorm((64,), eps=1e-05, elementwise_affine=True)
      (mlpblock): Sequential(
        (0): Linear(in_features=64, out_features=128, bias=True)
        (1): GELU()
        (2): Dropout(p=0.1, inplace=False)
        (3): Linear(in_features=128, out_features=64, bias=True)
        (4): Dropout(p=0.1, inplace=False)
      )
    )
    (norm): LayerNorm((64,), eps=1e-05, elementwise_affine=True)
  )
  (seq_classifer): SCHead(
    (mlpblock): Sequential(
      (0): Linear(in_features=64, out_features=128, bias=True)
      (1): ReLU()
      (2): Linear(in_features=128, out_features=2, bias=True)
    )
  )
)
parameter_size: [torch.Size([512, 64]), torch.Size([4096, 64]), torch.Size([64]), torch.Size([64]), torch.Size([64, 64]), torch.Size([64]), torch.Size([64, 64]), torch.Size([64]), torch.Size([64, 64]), torch.Size([64]), torch.Size([64, 64]), torch.Size([64]), torch.Size([64]), torch.Size([64]), torch.Size([128, 64]), torch.Size([128]), torch.
…
